DataParallel(
  (module): EDSR(
    (sub_mean): MeanShift(3, 3, kernel_size=(1, 1), stride=(1, 1))
    (add_mean): MeanShift(3, 3, kernel_size=(1, 1), stride=(1, 1))
    (head): Sequential(
      (0): Conv2d(3, 64, kernel_size=(3, 3), stride=(1, 1), padding=(1, 1))
    )
    (body): Sequential(
      (0): ResBlock_fde(
        (conv1): Conv2d(64, 64, kernel_size=(3, 3), stride=(1, 1), padding=(1, 1))
        (relu1): PReLU(num_parameters=64)
        (conv2): Conv2d(64, 64, kernel_size=(3, 3), stride=(1, 1), padding=(1, 1))
        (relu2): PReLU(num_parameters=64)
      )
      (1): ResBlock_fde(
        (conv1): Conv2d(64, 64, kernel_size=(3, 3), stride=(1, 1), padding=(1, 1))
        (relu1): PReLU(num_parameters=64)
        (conv2): Conv2d(64, 64, kernel_size=(3, 3), stride=(1, 1), padding=(1, 1))
        (relu2): PReLU(num_parameters=64)
      )
      (2): ResBlock_fde(
        (conv1): Conv2d(64, 64, kernel_size=(3, 3), stride=(1, 1), padding=(1, 1))
        (relu1): PReLU(num_parameters=64)
        (conv2): Conv2d(64, 64, kernel_size=(3, 3), stride=(1, 1), padding=(1, 1))
        (relu2): PReLU(num_parameters=64)
      )
      (3): ResBlock_fde(
        (conv1): Conv2d(64, 64, kernel_size=(3, 3), stride=(1, 1), padding=(1, 1))
        (relu1): PReLU(num_parameters=64)
        (conv2): Conv2d(64, 64, kernel_size=(3, 3), stride=(1, 1), padding=(1, 1))
        (relu2): PReLU(num_parameters=64)
      )
      (4): ResBlock_fde(
        (conv1): Conv2d(64, 64, kernel_size=(3, 3), stride=(1, 1), padding=(1, 1))
        (relu1): PReLU(num_parameters=64)
        (conv2): Conv2d(64, 64, kernel_size=(3, 3), stride=(1, 1), padding=(1, 1))
        (relu2): PReLU(num_parameters=64)
      )
      (5): ResBlock_fde(
        (conv1): Conv2d(64, 64, kernel_size=(3, 3), stride=(1, 1), padding=(1, 1))
        (relu1): PReLU(num_parameters=64)
        (conv2): Conv2d(64, 64, kernel_size=(3, 3), stride=(1, 1), padding=(1, 1))
        (relu2): PReLU(num_parameters=64)
      )
      (6): ResBlock_fde(
        (conv1): Conv2d(64, 64, kernel_size=(3, 3), stride=(1, 1), padding=(1, 1))
        (relu1): PReLU(num_parameters=64)
        (conv2): Conv2d(64, 64, kernel_size=(3, 3), stride=(1, 1), padding=(1, 1))
        (relu2): PReLU(num_parameters=64)
      )
      (7): ResBlock_fde(
        (conv1): Conv2d(64, 64, kernel_size=(3, 3), stride=(1, 1), padding=(1, 1))
        (relu1): PReLU(num_parameters=64)
        (conv2): Conv2d(64, 64, kernel_size=(3, 3), stride=(1, 1), padding=(1, 1))
        (relu2): PReLU(num_parameters=64)
      )
      (8): Conv2d(64, 64, kernel_size=(3, 3), stride=(1, 1), padding=(1, 1))
    )
    (tail): Sequential(
      (0): Upsampler(
        (0): Conv2d(64, 576, kernel_size=(3, 3), stride=(1, 1), padding=(1, 1))
        (1): PixelShuffle(upscale_factor=3)
      )
      (1): Conv2d(64, 3, kernel_size=(3, 3), stride=(1, 1), padding=(1, 1))
    )
  )
)
[Epoch 2]	Learning rate: 1.00e-4
[1600/16000]	[L1: 15.7685]	72.0+4.6s
[3200/16000]	[L1: 12.4486]	54.5+0.5s
[4800/16000]	[L1: 11.0105]	55.6+0.4s
[6400/16000]	[L1: 10.1623]	58.5+0.2s
[8000/16000]	[L1: 9.5821]	56.3+0.2s
[9600/16000]	[L1: 9.1388]	54.4+0.3s
[11200/16000]	[L1: 8.8481]	56.2+0.3s
[12800/16000]	[L1: 8.6019]	54.4+0.3s
[14400/16000]	[L1: 8.3909]	55.8+0.2s
…
