EDSR(
  (sub_mean): MeanShift(3, 3, kernel_size=(1, 1), stride=(1, 1))
  (add_mean): MeanShift(3, 3, kernel_size=(1, 1), stride=(1, 1))
  (head): Sequential(
    (0): Conv2d(3, 64, kernel_size=(3, 3), stride=(1, 1), padding=(1, 1))
  )
  (body): Sequential(
    (0): ResBlock_fde(
      (conv_0): Conv2d(64, 64, kernel_size=(3, 3), stride=(1, 1), padding=(1, 1))
      (conv_1): Conv2d(64, 64, kernel_size=(3, 3), stride=(1, 1), padding=(1, 1))
      (relu1): PReLU(num_parameters=64)
    )
    (1): ResBlock_fde(
      (conv_0): Conv2d(64, 64, kernel_size=(3, 3), stride=(1, 1), padding=(1, 1))
      (conv_1): Conv2d(64, 64, kernel_size=(3, 3), stride=(1, 1), padding=(1, 1))
      (relu1): PReLU(num_parameters=64)
    )
    (2): ResBlock_fde(
      (conv_0): Conv2d(64, 64, kernel_size=(3, 3), stride=(1, 1), padding=(1, 1))
      (conv_1): Conv2d(64, 64, kernel_size=(3, 3), stride=(1, 1), padding=(1, 1))
      (relu1): PReLU(num_parameters=64)
    )
    (3): ResBlock_fde(
      (conv_0): Conv2d(64, 64, kernel_size=(3, 3), stride=(1, 1), padding=(1, 1))
      (conv_1): Conv2d(64, 64, kernel_size=(3, 3), stride=(1, 1), padding=(1, 1))
      (relu1): PReLU(num_parameters=64)
    )
    (4): ResBlock_fde(
      (conv_0): Conv2d(64, 64, kernel_size=(3, 3), stride=(1, 1), padding=(1, 1))
      (conv_1): Conv2d(64, 64, kernel_size=(3, 3), stride=(1, 1), padding=(1, 1))
      (relu1): PReLU(num_parameters=64)
    )
    (5): ResBlock_fde(
      (conv_0): Conv2d(64, 64, kernel_size=(3, 3), stride=(1, 1), padding=(1, 1))
      (conv_1): Conv2d(64, 64, kernel_size=(3, 3), stride=(1, 1), padding=(1, 1))
      (relu1): PReLU(num_parameters=64)
    )
    (6): Conv2d(64, 64, kernel_size=(3, 3), stride=(1, 1), padding=(1, 1))
  )
  (tail): Sequential(
    (0): Upsampler(
      (0): Conv2d(64, 256, kernel_size=(3, 3), stride=(1, 1), padding=(1, 1))
      (1): PixelShuffle(upscale_factor=2)
    )
    (1): Conv2d(64, 3, kernel_size=(3, 3), stride=(1, 1), padding=(1, 1))
  )
)
[Epoch 2]	Learning rate: 1.00e-4
[1600/16000]	[L1: 14.6383]	2.4+66.0s
[3200/16000]	[L1: 11.2555]	1.9+0.8s
[4800/16000]	[L1: 9.7405]	2.0+0.2s
[6400/16000]	[L1: 8.8696]	2.0+0.1s
[8000/16000]	[L1: 8.1983]	2.0+0.1s
[9600/16000]	[L1: 7.7143]	2.1+0.1s
[11200/16000]	[L1: 7.3492]	2.0+0.1s
[12800/16000]	[L1: 7.0462]	2.1+0.1s
[14400/16000]	[L1: 6.8158]	1.9+0.1s
…
